…
Modify $PATH to customize ptxas location.
This message will be only logged once.
2022-11-10 00:44:06.109453: I tensorflow/stream_executor/cuda/cuda_blas.cc:1774] TensorFloat-32 will be used for the matrix multiplication. This will only be logged once.
Model: "model"
_________________________________________________________________
 Layer (type)                Output Shape              Param #   
=================================================================
 input_1 (InputLayer)        [(None, 160, 320, 3)]     0         
                                                                 
 rescaling (Rescaling)       (None, 160, 320, 3)       0         
                                                                 
 conv2d (Conv2D)             (None, 80, 160, 24)       1824      
                                                                 
 activation (Activation)     (None, 80, 160, 24)       0         
                                                                 
 conv2d_1 (Conv2D)           (None, 40, 80, 36)        21636     
                                                                 
 activation_1 (Activation)   (None, 40, 80, 36)        0         
                                                                 
 conv2d_2 (Conv2D)           (None, 20, 40, 48)        43248     
                                                                 
 activation_2 (Activation)   (None, 20, 40, 48)        0         
                                                                 
 conv2d_3 (Conv2D)           (None, 20, 40, 64)        27712     
                                                                 
 activation_3 (Activation)   (None, 20, 40, 64)        0         
                                                                 
 conv2d_4 (Conv2D)           (None, 20, 40, 78)        45006     
                                                                 
 activation_4 (Activation)   (None, 20, 40, 78)        0         
                                                                 
 flatten (Flatten)           (None, 62400)             0         
                                                                 
 dense (Dense)               (None, 100)               6240100   
                                                                 
 dense_1 (Dense)             (None, 50)                5050      
                                                                 
 dense_2 (Dense)             (None, 10)                510       
                                                                 
 dense_3 (Dense)             (None, 1)                 11        
                                                                 
=================================================================
Total params: 6,385,097
Trainable params: 6,385,097
Non-trainable params: 0
_________________________________________________________________
1701
[[-0.159375 ]
 [-0.1710937]
 [-0.1710937]
 [-0.1710937]
 [-0.1710937]
 [-0.178125 ]
 [-0.1898437]
 [-0.20625  ]]
Model: "model"
_________________________________________________________________
 Layer (type)                Output Shape              Param #   
=================================================================
 input_1 (InputLayer)        [(None, 160, 320, 3)]     0         
                                                                 
 rescaling (Rescaling)       (None, 160, 320, 3)       0         
                                                                 
 conv2d (Conv2D)             (None, 80, 160, 24)       1824      
                                                                 
 activation (Activation)     (None, 80, 160, 24)       0         
                                                                 
 conv2d_1 (Conv2D)           (None, 40, 80, 36)        21636     
                                                                 
 activation_1 (Activation)   (None, 40, 80, 36)        0         
                                                                 
 conv2d_2 (Conv2D)           (None, 20, 40, 48)        43248     
                                                                 
 activation_2 (Activation)   (None, 20, 40, 48)        0         
                                                                 
 conv2d_3 (Conv2D)           (None, 20, 40, 64)        27712     
                                                                 
 activation_3 (Activation)   (None, 20, 40, 64)        0         
                                                                 
 conv2d_4 (Conv2D)           (None, 20, 40, 78)        45006     
                                                                 
 activation_4 (Activation)   (None, 20, 40, 78)        0         
                                                                 
 flatten (Flatten)           (None, 62400)             0         
                                                                 
 dense (Dense)               (None, 100)               6240100   
                                                                 
 dense_1 (Dense)             (None, 50)                5050      
                                                                 
 dense_2 (Dense)             (None, 10)                510       
                                                                 
 dense_3 (Dense)             (None, 1)                 11        
                                                                 
=================================================================
Total params: 6,385,097
Trainable params: 6,385,097
Non-trainable params: 0
_________________________________________________________________
Epoch 1/50
   1/1701 [..............................] - ETA: 4:16:19 - loss: 0.0265 - log_cosh: 0.0265
…
